RerieverConfig_small()
	batch_size: 32
	beta1: 0.9
	beta2: 0.95
	grad_clip: 1.0
	gradient_accumulation_steps: 4
	hidden_size: 512
	learning_rate: 0.0006
	lr_decay_iters: 80000
	max_iters: 80000
	min_lr: 6e-05
	num_heads: 8
	num_layers: 6
	sequence_length: 1024
	vocab_size: 32000
	warmup_iters: 2000
	weight_decay: 0.1

OptimizedModule(
  (_orig_mod): Retriever(
    (token_embedding): Embedding(32000, 512)
    (position_embedding): Embedding(1024, 512)
    (layers): ModuleList(
      (0-5): 6 x DecoderLayer(
        (ln_1): RMSNorm()
        (attn): Attention(
          (q_proj): Linear(in_features=512, out_features=512, bias=False)
          (k_proj): Linear(in_features=512, out_features=512, bias=False)
          (v_proj): Linear(in_features=512, out_features=512, bias=False)
          (o_proj): Linear(in_features=512, out_features=512, bias=False)
        )
        (ln_2): RMSNorm()
        (mlp): MLP(
          (gate_proj): Linear(in_features=512, out_features=1372, bias=False)
          (up_proj): Linear(in_features=512, out_features=1372, bias=False)
          (down_proj): Linear(in_features=1372, out_features=512, bias=False)
        )
      )
    )
    (norm): RMSNorm()
    (lm_head): Linear(in_features=512, out_features=32000, bias=False)
  )
)

num decayed parameter tensors: 44, with 35,844,096 parameters
num non-decayed parameter tensors: 13, with 6,656 parameters
number of total parameters: 35.33M
all train file nums: 1024
preparing first dataset file english_c4/c4-train.00000-of-01024.txt
finished, consume: 118s
processing 0: english_c4/c4-train.00000-of-01024.txt, origin: 355732, samples: 173721, accum_tokens: 177M, iter_num: 0
…
